data/pt_m_ckpt.pth (torch_old, 14582 bytes, 7 tensors)

dtwlayers.0.filters.0.kernel f4 [463]
1.434449 1.522012 1.1060649 1.1706731 1.1309625 1.5571674 1.3783402 1.7152392
1.624401 1.6660776 1.2651631 1.4386135 1.7350723 1.1598128 1.206001 1.3222858
1.3004187 1.3250068 1.2355813 1.0822806 1.071313 1.1341643 1.0593935 1.0070044
0.9793066 0.99029636 0.9444493 0.9455362 0.853204 0.78977835 0.77724916 0.8864399
0.732508 0.72050977 0.7592788 0.6967907 0.61290604 0.56489253 0.5277665 0.4693186
0.47793555 0.46018752 0.39680994 0.5487457 0.17871116 0.29408938 0.43724117 0.040373895
0.23137921 0.22849016 0.18332443 0.18142211 0.1962969 0.18624185 0.19495732 0.18116328
0.20125411 0.175124 0.28258765 -0.37117654 -0.42565262 -0.39820236 -0.3954643 -0.4059376
-0.39563483 -0.39669305 -0.39288065 -0.34046882 -0.4345557 -0.43660668 -0.24013694 -0.9151828
-0.96348053 -1.0602121 -0.4584821 -0.9495252 -0.89164543 -0.9026238 -0.90662014 -0.47147545
-0.89430016 -0.8711482 -0.9626395 -0.8726083 -0.98117876 -1.060759 -0.9035817 -0.8872238
-0.923779 -0.99220735 -1.000782 -0.89147574 -0.8642644 -0.94876826 -0.88393015 -0.8888436
-0.93892 -0.91141796 -0.92650855 -0.96765256 -0.94501156 -0.948729 -0.9635346 -1.1365746
-1.1363407 -0.9895794 -0.9789103 -0.5467283 -0.2606153 -0.15933783 -0.2563116 -0.50115436
-0.6418527 -0.8628475 -1.1983037 -1.5337678 -1.1776307 -1.2088349 -0.957353 -0.95737314
-0.95719707 -1.644751 -1.6435903 -1.6442014 -1.6504852 -1.6765813 -1.8087281 -1.7075571
-1.6664577 -1.6108785 -1.5480045 -1.5039868 -1.4274224 -1.3092655 -1.4047476 -1.4047296
-1.0806909 -1.1158452 -1.3950493 -1.1023966 -1.1031326 -1.2709018 -1.2994571 -1.3075103
-1.3178625 -1.319826 -1.359401 -1.3320433 -1.579674 -1.2793607 -0.46974444 -0.4386403
-0.4175851 -0.37488878 -1.233954 -0.3269844 -0.39401037 -0.38192147 -0.3965853 -0.37974843
-0.5398907 -0.5027317 -0.66647124 -0.39575353 0.22556092 0.21426266 0.18803494 0.0908865
-0.95226675 -0.9707676 -0.8782072 -0.83661836 -0.7056024 -0.5184079 -0.31623048 -0.53102416
-0.41684496 -0.45516658 -0.3392024 -0.3952184 -0.43040872 0.38068798 0.36535415 -0.3352327
0.47996408 0.28359407 0.29077998 0.27928558 0.28993708 0.28358328 0.22340524 0.6096961
0.28117236 0.5193416 0.41402832 0.47798777 0.51311564 0.62479854 0.7088725 0.6717295
0.6732918 0.6732733 0.6277853 0.7520331 0.59343034 0.8027852 1.5325543 1.52889
1.4721756 1.7822595 1.4045471 1.4023577 1.4055128 1.7861983 1.394942 1.3873636
1.3909898 1.9409841 1.4440053 1.360851 1.3850756 1.3729447 1.359512 1.3746988
1.4807303 1.3572139 1.3643281 1.3906803 1.416828 1.3356056 1.69083 1.350672
1.4246181 1.3337426 1.735665 1.3346903 1.539054 1.34144 1.3626804 1.3346962
1.3341566 1.4583944 1.4322755 1.3347796 1.3451966 1.817088 1.3339208 1.348581
1.3470134 1.4798139 1.4709941 1.519972 1.4436884 1.4952635 1.4977916 1.5241245
00000000: 069c b73f 4ad1 c23f 8993 8d3f 9ed8 953f
00000010: 61c3 903f 4351 c73f 746d b03f f58c db3f
00000020: 5fec cf3f 0842 d53f ddf0 a13f 7d24 b83f
00000030: d916 de3f bf74 943f 3e5e 9a3f a940 a93f
00000040: 1f74 a63f d399 a93f 8727 9e3f 2c88 8a3f
00000050: c920 893f 4c2c 913f 359a 873f 85e5 803f
00000060: d6b3 7a3f 1084 7d3f 6ec7 713f a90e 723f
00000070: 946b 5a3f ea2e 4a3f cdf9 463f baed 623f
00000080: a585 3b3f 5473 383f 1860 423f e060 323f
00000090: 69e7 1c3f cc9c 103f b51b 073f 874a f03e
000000a0: f8b3 f43e b39d eb3e ac2a cb3e 997a 0c3f
000000b0: 0f00 373e e292 963e 13de df3e 195f 253d
000000c0: acee 6c3e 53f9 693e 66b9 3b3e b8c6 393e
000000d0: 0e02 493e 2fb6 3e3e e4a2 473e de82 393e
000000e0: 8f15 4e3e b553 333e 54af 903e da0a bebe
000000f0: 24ef d9be 2ee1 cbbe 4c7a cabe 0ed7 cfbe
00000100: a690 cabe 5a1b cbbe a727 c9be ee51 aebe
00000110: 167e debe e98a dfbe 75e6 75be 6c49 6abf
00000120: a9a6 76bf 08b5 87bf 2abe eabe 1514 73bf
00000130: e042 64bf 5a12 67bf 4218 68bf 3b65 f1be
00000140: dbf0 64bf 9203 5fbf 8b6f 76bf 4263 5fbf
00000150: 882e 7bbf f3c6 87bf 2151 67bf 1921 63bf
00000160: c87c 6cbf 4d01 7ebf a019 80bf c137 64bf
00000170: 6f40 5dbf 7ae2 72bf 3f49 62bf 418b 63bf
00000180: 105d 70bf b052 69bf aa2f 6dbf 14b8 77bf
00000190: 47ec 71bf e7df 72bf 34aa 76bf 477b 91bf
000001a0: 9d73 91bf 1355 7dbf de99 7abf 63f6 0bbf
000001b0: 5e6f 85be 7529 23be 463b 83be a74b 00bf
000001c0: 7550 24bf 93e3 5cbf 0462 99bf 8152 c4bf
000001d0: 9abc 96bf 1abb 9abf 1615 75bf 6816 75bf
000001e0: de0a 75bf 3387 d2bf 2b61 d2bf 3175 d2bf
000001f0: 1943 d3bf 379a d6bf 6784 e7bf 3b91 dabf
00000200: 7c4e d5bf 4431 cebf 0325 c6bf a482 c0bf
00000210: c7b5 b6bf 0396 a7bf c5ce b3bf 2ece b3bf
00000220: 1454 8abf 04d4 8ebf fa90 b2bf 551b 8dbf
00000230: 7333 8dbf e9ac a2bf 9c54 a6bf 7f5c a7bf
00000240: b8af a8bf 0ff0 a8bf da00 aebf 6580 aabf
00000250: c232 cabf 17c2 a3bf 5882 f0be 7695 e0be
00000260: b7cd d5be 6cf1 bfbe 34f2 9dbf 806a a7be
00000270: babb c9be 368b c3be 3a0d cbbe 636e c2be
00000280: 4736 0abf 06b3 00bf dc9d 2abf 35a0 cabe
00000290: 71f9 663e ac67 5b3e 3b8c 403e b422 ba3d
000002a0: c1c7 73bf 3a84 78bf 30d2 60bf 9f2c 56bf
000002b0: 5ca2 34bf 61b6 04bf f6e8 a1be 33f1 07bf
000002c0: b46c d5be 980b e9be f0ab adbe 115a cabe
000002d0: 885e dcbe 89e9 c23e b30f bb3e 9fa3 abbe
000002e0: dabd f53e 3e33 913e 1de1 943e 85fe 8e3e
000002f0: a272 943e d431 913e 58c4 643e 0b15 1c3f
00000300: d3f5 8f3e 92f3 043f 85fb d33e d0ba f43e
00000310: 8c5b 033f ccf2 1f3f ab78 353f 77f6 2b3f
00000320: da5c 2c3f a45b 2c3f 8ab6 203f 3e85 403f
00000330: 0deb 173f 5583 4d3f bd2a c43f abb2 c33f
00000340: 4070 bc3f 1421 e43f 33c8 b33f 7580 b33f
00000350: d8e7 b33f 25a2 e43f 768d b23f 2195 b13f
00000360: f40b b23f 2b72 f83f 2ad5 b83f 5e30 ae3f
00000370: 284a b13f a7bc af3f 7d04 ae3f 21f6 af3f
00000380: 9288 bd3f 2fb9 ad3f 4ea2 ae3f d001 b23f
00000390: 9f5a b53f 20f5 aa3f 1e6d d83f d2e2 ac3f
000003a0: e359 b63f 14b8 aa3f 452a de3f 22d7 aa3f
000003b0: b9ff c43f 4eb4 ab3f 506c ae3f 53d7 aa3f
000003c0: a5c5 aa3f abac ba3f ce54 b73f 0fda aa3f
000003d0: 672f ac3f 5796 e83f ebbd aa3f 4d9e ac3f
000003e0: ef6a ac3f 8b6a bd3f 8949 bc3f 718e c23f
000003f0: c8ca b83f cb64 bf3f a3b7 bf3f 8316 c33f

dtwlayers.0.filters.1.kernel f4 [463]
1.2924348 1.9645689 1.9094844 1.8867368 1.9026314 1.905729 1.9456543 1.8402206
2.0050309 1.6639358 1.3303027 1.2845162 1.2629339 1.2699631 1.2787932 1.2252127
1.247579 1.1840771 1.2255983 1.1384703 1.021649 1.0731959 1.010307 1.021645
1.0289248 1.026664 1.0377091 0.8486142 0.68019724 0.54204226 0.6091626 0.5468019
0.4766652 0.4895728 0.5113469 0.44254783 0.45448035 0.46261454 0.4224597 0.38126984
0.3374309 0.34347036 0.17990689 0.19353542 0.18094109 0.12784946 0.13283825 0.052228797
-0.05059705 -0.12427966 -0.1895669 -0.29090983 -0.29340532 -0.29349136 -0.29336673 -0.1484014
-0.00898082 0.23742141 0.2514436 0.25240928 0.20304576 -0.050858755 -0.100242846 -0.07718829
-0.08579589 -0.11341205 -0.117376134 -0.09325089 -0.0893544 -0.09237425 -0.08720015 -0.11465955
0.00078131503 -0.111112 -0.060073063 -0.06251462 -0.05330373 -0.084858105 -0.028615836 -0.1291664
-1.6838964 -1.7477696 -1.6616396 -1.7250664 -1.6806273 -1.6817503 -1.6581606 -1.6672807
-1.6578865 -1.7078983 -1.6905779 -1.654088 -1.7843025 -1.7112501 -1.7307255 -1.7076724
-1.6627376 -1.6696194 -1.6960725 -1.6871725 -1.6732684 -1.6778338 -1.6729099 -1.6632291
-1.6707768 -1.6706152 -1.6735585 -1.624703 -1.6438408 -1.690799 -1.6775663 -1.3050835
-1.5119078 -1.4376825 -1.5215955 -1.7158943 -1.6145122 -1.5117781 -1.5395559 -1.4270878
-1.234088 -1.3442112 -1.3539885 -1.2960801 -1.2291327 -1.1365807 -1.2236923 -1.4102128
-1.4102082 -1.1402977 -1.1539708 -1.1754711 -1.0918502 -0.9881115 -0.9867463 -0.9857129
-0.98643464 -0.97019386 -0.9741081 -0.97045666 -0.9711937 -0.97442734 -0.9609026 -0.9361202
-0.9114534 -0.8861223 -0.8380987 -0.78966 -0.7211109 -0.67193407 -0.5965079 -0.5156446
-0.39130685 -0.48457903 -0.57545644 -0.7058339 -0.65631247 -0.5854219 -0.5408167 -0.48750147
-0.42607352 -0.38506013 -0.34419197 -0.33587053 -0.32869294 -0.27988192 -0.33452046 -0.34794983
-0.41824847 -0.2910576 -0.14550695 -0.054854438 0.10295084 0.045994457 0.008119958 -0.027078014
-0.11144289 -0.21708892 -0.3105753 -0.16745554 -0.10978061 -0.055996206 -0.016431507 0.027529297
0.07501884 0.09783912 0.06724846 0.012643867 0.09325238 0.10133923 0.1381268 0.1021863
0.211118 0.36305276 0.48260352 0.5190041 0.5437284 0.60807794 0.59728366 0.5929226
0.5966376 0.59203947 0.59392893 0.58194375 0.64739144 0.7283216 0.7284625 0.727731
0.6902378 0.68499345 0.6998962 0.7193824 1.4236836 1.423741 1.4239727 1.578789
1.499441 1.4994645 1.5369493 1.5242878 1.5281198 1.5664574 1.5424204 1.5286361
1.5282384 1.5775598 1.5553447 1.5805645 1.5798066 1.5642821 1.5600963 1.597763
1.5867869 1.5983053 1.6005154 1.596239 1.5767676 1.5977281 1.5955472 1.5996401
1.5976415 1.5977335 1.5954623 1.5824747 1.5756781 1.5752953 1.5817332 1.60082
1.587351 1.5916227 1.5832663 1.6122916 1.6121862 1.593463 1.57947 1.6212181
00000000: 816e a53f fe76 fb3f fc69 f43f 9780 f13f
00000010: 6d89 f33f eeee f33f 330b f93f 598c eb3f
00000020: 6d52 0040 d9fb d43f 5c47 aa3f 076b a43f
00000030: d1a7 a13f 278e a23f 7faf a33f c5d3 9c3f
00000040: abb0 9f3f d78f 973f 68e0 9c3f 65b9 913f
00000050: 65c5 823f 7c5e 893f bd51 813f 43c5 823f
00000060: cfb3 833f ba69 833f a7d3 843f c83e 593f
00000070: 6821 2e3f 48c3 0a3f 15f2 1b3f 36fb 0b3f
00000080: 760d f43e 49a9 fa3e a1e7 023f a195 e23e
00000090: a6b1 e83e d0db ec3e a34c d83e cd35 c33e
000000a0: bec3 ac3e 59db af3e 8339 383e 262e 463e
000000b0: 9f48 393e f8ea 023e c006 083e dded 553d
000000c0: da3e 4fbd 5686 febd d31d 42be 22f2 94be
000000d0: 3939 96be 8044 96be 2a34 96be 89f6 17be
000000e0: 4a24 13bc 991e 733e 37bd 803e ca3b 813e
000000f0: 3aeb 4f3e 4551 50bd 1f4c cdbd e514 9ebd
00000100: c1b5 afbd 9444 e8bd e662 f0bd 53fa bebd
00000110: 71ff b6bd b62e bdbd fe95 b2bd a0d2 eabd
00000120: 2ad1 4c3a b08e e3bd 2c0f 76bd aa07 80bd
00000130: 0355 5abd 16ca adbd c26b eabc 3244 04be
00000140: eb89 d7bf eab6 dfbf 9bb0 d4bf face dcbf
00000150: cc1e d7bf 9843 d7bf 9b3e d4bf 7469 d5bf
00000160: a035 d4bf 699c dabf db64 d8bf 28b9 d3bf
00000170: 0664 e4bf 3e0a dbbf 6a88 ddbf 0295 dabf
00000180: 96d4 d4bf 17b6 d5bf e718 d9bf 45f5 d7bf
00000190: a92d d6bf 42c3 d6bf e921 d6bf b1e4 d4bf
000001a0: 04dc d5bf b8d6 d5bf 2a37 d6bf 45f6 cfbf
000001b0: 6069 d2bf 1a6c d8bf 7eba d6bf fa0c a7bf
000001c0: 3286 c1bf fb05 b8bf a4c3 c2bf 6da2 dbbf
000001d0: 56a8 cebf f281 c1bf 2b10 c5bf d0aa b6bf
000001e0: 98f6 9dbf 1d0f acbf 7f4f adbf f4e5 a5bf
000001f0: 3854 9dbf 7a7b 91bf f3a1 9cbf da81 b4bf
00000200: b481 b4bf 46f5 91bf 51b5 93bf d675 96bf
00000210: bfc1 8bbf e0f4 7cbf 689b 7cbf ae57 7cbf
00000220: fb86 7cbf a05e 78bf 265f 79bf d96f 78bf
00000230: 26a0 78bf 1274 79bf b6fd 75bf 93a5 6fbf
00000240: 0355 69bf e9d8 62bf a38d 56bf 2827 4abf
00000250: b99a 38bf df03 2cbf beb4 18bf 4901 04bf
00000260: 5f59 c8be be1a f8be 1d51 13bf 88b1 34bf
00000270: 1804 28bf 36de 15bf f772 0abf cb99 f9be
00000280: 4f26 dabe 9a26 c5be ee39 b0be 39f7 abbe
00000290: 714a a8be af4c 8fbe 4446 abbe 7b26 b2be
000002a0: aa24 d6be 8005 95be c6ff 14be 0caf 60bd
000002b0: e4d7 d23d af64 3c3d 9309 053c b6d2 ddbc
000002c0: 2b3c e4bd 8f4c 5ebe ba03 9fbe 7779 2bbe
000002d0: a8d4 e0bd 475c 65bd 5e9b 86bc 1f85 e13c
000002e0: 7aa3 993d e05f c83d 90b9 893d 3928 4f3c
000002f0: 1bfb be3d f18a cf3d 1d71 0d3e 0d47 d13d
00000300: 512f 583e 0de2 b93e cf17 f73e 74dd 043f
00000310: c931 0b3f ffaa 1b3f 95e7 183f c7c9 173f
00000320: 3ebd 183f e68f 173f ba0b 183f 44fa 143f
00000330: 72bb 253f 4973 3a3f 857c 3a3f 944c 3a3f
00000340: 6db3 303f bb5b 2f3f 662c 333f 7229 383f
00000350: 443b b63f 253d b63f bd44 b63f c215 ca3f
00000360: afed bf3f 74ee bf3f c1ba c43f dd1b c33f
00000370: 6e99 c33f ad81 c83f 086e c53f 59aa c33f
00000380: 519d c33f 7bed c93f 8915 c73f f04f ca3f
00000390: 1a37 ca3f 653a c83f 3cb1 c73f 7f83 cc3f
000003a0: d51b cb3f 4595 cc3f b0dd cc3f 8f51 cc3f
000003b0: 85d3 c93f 5b82 cc3f e43a cc3f 02c1 cc3f
000003c0: 847f cc3f 8882 cc3f 1c38 cc3f 888e ca3f
000003d0: d2af c93f 47a3 c93f 3c76 ca3f abe7 cc3f
000003e0: 512e cb3f 4bba cb3f 78a8 ca3f 925f ce3f
000003f0: 1e5c ce3f 98f6 cb3f 132c ca3f 1384 cf3f

dtwlayers.0.filters.2.kernel f4 [463]
2.4881835 1.094964 1.192047 0.8786821 0.9594469 0.9741388 0.9781784 0.9928744
1.1575308 1.1271347 1.3227113 1.3737 1.4934545 1.7005291 1.8250195 1.7141454
1.5706949 1.3839823 1.1357036 1.135902 1.090623 1.0981282 1.1188455 1.0971088
1.1132452 1.1678784 1.0117811 0.92568326 0.9230046 0.92834 0.92560214 0.6945562
0.6797566 0.73109883 0.66220134 0.5400628 0.61768043 0.61033636 0.6103732 0.31996387
0.52035785 0.27616075 0.43298474 0.2339145 0.15150814 0.09607994 0.097756624 0.115528315
0.042625166 0.06537578 0.025449926 -0.01454441 -0.0061428985 0.0018634372 -0.043890823 -0.045044858
-0.2604186 -0.2890949 -0.31073353 -0.36249682 -0.36538664 -0.41248986 -0.3486433 -0.47753656
-0.4685924 -0.83376235 -0.8337813 -0.97930133 -0.97477096 -0.732452 -0.6030194 -0.45736384
-0.34892908 -0.31616363 -0.5091172 -1.228244 -1.0558307 -1.2019621 -1.2166655 -1.1739053
-1.110746 -1.0293525 -0.9973417 -0.9973186 -0.81247085 -0.8125602 -0.79833263 -0.77658594
-0.7136771 -0.69321764 -0.69401234 -0.70880646 -0.6943221 -0.7150793 -1.0177104 -0.81214374
-0.805228 -0.6306115 -0.5231666 -0.50969654 -0.32829764 -0.538819 -0.5189298 -0.46532986
-0.3296463 -0.32970843 -0.3296362 -0.627432 -1.3072839 -0.6637855 -1.3541046 -1.3646375
-1.4645622 -1.4661251 -1.4661634 -1.4659176 -0.87948453 -1.3545474 -1.3468765 -1.3457991
-1.354595 -1.3456362 -1.3471515 -1.3456087 -1.3461151 -0.8951205 -0.8951816 -1.373237
-1.5763698 -1.5716822 -1.4232409 -1.3273499 -1.4459283 -1.0100225 -1.3176891 -1.0234041
-1.0131088 -0.91907394 -0.8025832 -0.77364373 -0.7789678 -0.78419596 -0.7769508 -0.78243697
-0.79492384 -0.7943392 -0.7903125 -0.78677326 -0.6496435 -0.61777204 -0.7011698 -0.70980936
-0.7882736 -0.50053173 -0.79350275 -0.8100741 -0.6605097 -0.63677084 -0.5876582 -0.5948478
0.14248763 0.1598077 0.1634875 0.15193444 0.19737333 0.1376725 0.13764676 0.1435718
0.1430931 0.13654968 0.14909634 0.19967753 0.22998269 0.30684575 0.29215217 0.28367004
0.31363544 0.38445696 0.4515172 0.38677916 0.4588698 0.69182175 0.69089293 0.80899394
0.8347559 0.82460964 0.8625412 0.95825523 0.9297652 0.97661394 0.9711927 0.97458947
0.9722547 0.97083086 0.9749075 0.952012 0.9443196 0.95021707 0.94952476 0.9445314
1.3631493 1.36519 1.3639731 1.0062623 0.54840964 0.6637487 0.7837917 0.85417837
0.8541798 0.99023837 1.0248901 0.996994 0.98957133 1.022366 0.8107377 0.9728147
0.9926572 0.9469589 0.8864042 0.88604295 1.0274328 0.8698059 0.8842924 0.89006305
0.89872646 0.9059684 0.90676486 0.9467425 0.86824113 0.8406108 0.8416403 0.84204805
0.84546417 0.8649999 0.84212923 0.8412764 0.849764 0.865333 0.83860445 0.8551207
0.84798497 0.8433095 0.84215146 0.8464183 0.8470885 0.84406024 0.8598736 0.8533888
0.86151695 0.8592898 0.8282266 0.8394985 0.7717689 0.70343506 0.7426661 0.6899558
00000000: 663e 1f40 c827 8c3f ff94 983f 4ff1 603f
00000010: 509e 753f 2961 793f e669 7a3f 042d 7e3f
00000020: f829 943f f345 903f 9b4e a93f 67d5 af3f
00000030: 8429 bf3f f0aa d93f 3d9a e93f 1e69 db3f
00000040: 880c c93f 5526 b13f bc5e 913f 3d65 913f
00000050: 8999 8b3f 778f 8c3f 5436 8f3f 106e 8c3f
00000060: d27e 8e3f 0a7d 953f 0b82 813f 94f9 6c3f
00000070: 084a 6c3f b1a7 6d3f 43f4 6c3f 6fce 313f
00000080: 8704 2e3f 4b29 3b3f 0786 293f 8e41 0a3f
00000090: 4e20 1e3f 013f 1c3f 6b41 1c3f 4ed2 a33e
000000a0: 2c36 053f f164 8d3e 2db0 dd3e 4887 6f3e
000000b0: f324 1b3e 8fc5 c43d a034 c83d 1c9a ec3d
000000c0: ba97 2e3d bde3 853d 5d7c d03c ad4b 6ebc
000000d0: 5e4a c9bb 943e f43a ddc6 33bd f580 38bd
000000e0: 9655 85be 3f04 94be 7718 9fbe 2f99 b9be
000000f0: f513 bbbe df31 d3be 6081 b2be ac7f f4be
00000100: 58eb efbe 7371 55bf b172 55bf 7eb3 7abf
00000110: 978a 79bf f981 3bbf 7b5f 1abf 982b eabe
00000120: d5a6 b2be 33e0 a1be 8155 02bf 1937 9dbf
00000130: 7625 87bf e5d9 99bf b2bb 9bbf 8742 96bf
00000140: ed2c 8ebf d3c1 83bf c951 7fbf 4650 7fbf
00000150: 17fe 4fbf f203 50bf 875f 4cbf 56ce 46bf
00000160: 8bb3 36bf b676 31bf cbaa 31bf 5774 35bf
00000170: 18bf 31bf 700f 37bf 5644 82bf a7e8 4fbf
00000180: 6c23 4ebf c16f 21bf 3fee 05bf 797b 02bf
00000190: a116 a8be 0bf0 09bf 95d8 04bf b73f eebe
000001a0: 66c7 a8be 8bcf a8be 13c6 a8be 629f 20bf
000001b0: 1455 a7bf d9ed 29bf 4d53 adbf 71ac aebf
000001c0: c676 bbbf fda9 bbbf 3eab bbbf 30a3 bbbf
000001d0: e625 61bf cf61 adbf 7366 acbf 2543 acbf
000001e0: 5e63 adbf cf3d acbf 766f acbf e83c acbf
000001f0: 804d acbf 9e26 65bf 9f2a 65bf 3bc6 afbf
00000200: 7cc6 c9bf e22c c9bf c22c b6bf 9ae6 a9bf
00000210: 2e14 b9bf 6b48 81bf 09aa a8bf e8fe 82bf
00000220: 8dad 81bf 6e48 6bbf 1876 4dbf 840d 46bf
00000230: 6f6a 47bf 11c1 48bf 3fe6 46bf ca4d 48bf
00000240: 2180 4bbf d059 4bbf ec51 4abf f969 49bf
00000250: 094f 26bf 4f26 1ebf dd7f 33bf 11b6 35bf
00000260: 4ccc 49bf d922 00bf ff22 4bbf 0461 4fbf
00000270: 2a17 29bf 6a03 23bf c570 16bf f247 18bf
00000280: 47e8 113e a1a4 233e 4469 273e b494 1b3e
00000290: 3c1c 4a3e 05fa 0c3e 46f3 0c3e 7c04 133e
000002a0: ff86 123e aed3 0b3e b6ac 183e 4478 4c3e
000002b0: 9580 6b3e e31a 9d3e f894 953e 333d 913e
000002c0: d394 a03e 8bd7 c43e 432d e73e eb07 c63e
000002d0: fcf0 ea3e 3b1b 313f 5cde 303f 3a1a 4f3f
000002e0: 90b2 553f 9e19 533f 80cf 5c3f 3750 753f
000002f0: 1805 6e3f 5f03 7a3f 16a0 783f b27e 793f
00000300: afe5 783f 5f88 783f 8a93 793f 0fb7 733f
00000310: eebe 713f 6d41 733f 0e14 733f cfcc 713f
00000320: ad7b ae3f 8cbe ae3f ac96 ae3f 34cd 803f
00000330: 9364 0c3f 6feb 293f 93a6 483f 6fab 5a3f
00000340: 87ab 5a3f 4380 7d3f 992f 833f 003b 7f3f
00000350: 8c54 7d3f e4dc 823f 828c 4f3f 620a 793f
00000360: c81e 7e3f e66b 723f 63eb 623f b6d3 623f
00000370: eb82 833f 99ab 5e3f fd60 623f 2cdb 633f
00000380: f012 663f 8ced 673f be21 683f b75d 723f
00000390: 0d45 5e3f 4532 573f bd75 573f 7690 573f
000003a0: 5770 583f a270 5d3f c895 573f e45d 573f
000003b0: 228a 593f 7786 5d3f c8ae 563f 31e9 5a3f
000003c0: 8b15 593f 22e3 573f 3d97 573f dfae 583f
000003d0: cbda 583f 5514 583f ad20 5c3f b077 5a3f
000003e0: 608c 5c3f 6bfa 5b3f a906 543f 60e9 563f
000003f0: a692 453f 5214 343f 5e1f 3e3f f1a0 303f

dtwlayers.0.filters.3.kernel f4 [463]
1.8206774 2.0943725 2.0879629 1.8275175 1.827288 1.9726944 1.844798 1.4012654
1.3042098 1.3920013 1.391781 1.3920633 1.3920878 1.3913817 1.3922008 1.3924395
1.3922353 1.390541 1.3470718 1.3120707 1.2208884 1.3578744 1.2755048 1.295326
1.1873019 1.1017826 1.0231874 0.9455764 0.9205047 0.8327844 0.7662838 0.81177354
0.7586284 0.62704974 0.82306993 0.64702195 0.7757879 0.7637057 0.81185085 0.52664125
0.62631595 0.43771917 0.47903857 0.32434142 0.40813375 0.35183337 0.32928747 0.27336174
0.3699059 0.4053764 0.1211515 0.16631018 0.33073696 0.16606975 0.30462655 0.1337376
-0.061526977 0.007966229 -0.027883118 -0.12001213 -0.27420816 -0.25286427 -0.009545878 -0.28628972
-0.2944362 -0.14149038 -0.27951717 -0.23356825 -0.23123343 -0.19280125 -0.12221723 -0.2776857
-0.26039824 -0.24680215 -0.28018045 -0.21190858 -0.2506731 -0.24939701 -0.151285 -0.3318941
-0.22663537 -1.1856842 -1.291751 -1.2131327 -1.0491135 -1.0817801 -1.4361475 -1.2869964
-1.4015408 -0.91556466 -1.2852275 -1.2321826 -0.89507633 -1.2143072 -1.1249859 -1.0754272
-1.1948347 -1.1214936 -1.0475281 -1.060454 -1.042845 -1.0461731 -1.0697021 -1.1949883
-1.0384413 -1.2772455 -1.0526965 -0.9483821 -0.9488983 -0.9485795 -0.9484907 -0.5694344
-0.9927613 -0.9924768 -0.9912729 -1.4486272 -1.5367042 -1.5370766 -1.5369601 -1.5371689
-1.5353205 -1.213257 -1.5367532 -1.2252251 -1.5109892 -1.5206656 -1.5172822 -1.5142139
-1.4757565 -1.2421352 -1.885668 -1.8852848 -1.2185858 -1.2539996 -1.9046092 -1.208892
-1.4039788 -1.3775877 -1.2515098 -1.0463827 -0.98519164 -1.0018501 -0.9768919 -1.0322905
-1.0226752 -0.95656466 -0.98415905 -0.9784236 -0.99431515 -0.9560246 -0.8622336 -0.8449264
-0.7699832 -0.8150036 -0.8115654 -0.83888954 -0.810381 -0.8096892 -0.81850547 -0.7692994
-0.76668954 -0.32385388 -0.16371119 -0.30748612 -0.13218401 -0.58942884 -0.13397789 -0.5722743
-0.23494376 -0.21015018 -0.19314362 -0.14817612 -0.0043846476 0.044225767 -0.39902058 -0.24815224
-0.24653219 -0.23867197 -0.10361762 -0.099950425 0.10138219 0.09391434 0.2178907 0.34735718
0.34678763 0.5045831 0.32924342 0.2761742 0.43325832 0.45653698 0.6383417 0.35684896
0.48443642 0.61625415 0.5215394 0.8877362 0.7868215 0.79925525 0.8424592 0.6607935
1.0303829 1.4776441 1.4339454 1.4186255 1.3609004 1.3813107 1.4374177 1.2182133
1.37224 1.3970116 1.1122471 1.3595381 1.4556558 1.4555305 1.4556123 1.4102265
1.4666032 1.4665215 1.0800799 1.3539138 0.82528853 1.247739 0.90395784 0.99477935
0.8468806 0.7957606 1.2695596 1.028041 1.0664442 0.67154264 0.6992091 0.9191163
0.90931207 0.87832355 1.0232867 0.8777672 0.68663174 0.69058704 0.62267125 0.6768003
0.6163248 0.63137734 0.6273368 0.5960189 0.94281065 1.087786 1.1168169 1.2014743
1.6126202 1.612632 1.6124749 1.4443861 1.4447817 1.4444209 1.4591522 1.4485519
00000000: f50b e93f 330a 0640 2fa1 0540 18ec e93f
00000010: 93e4 e93f 4081 fc3f 5722 ec3f aa5c b33f
00000020: 59f0 a63f 192d b23f e125 b23f 212f b23f
00000030: ef2f b23f cc18 b23f a333 b23f 753b b23f
00000040: c434 b23f 3ffd b13f d96c ac3f eff1 a73f
00000050: 1246 9c3f d4ce ad3f be43 a33f 3ecd a53f
00000060: 82f9 973f 3607 8d3f cef7 823f 4c11 723f
00000070: 32a6 6b3f 5c31 553f 2d2b 443f 64d0 4f3f
00000080: 7935 423f 5586 203f b6b4 523f 3ba3 253f
00000090: 099a 463f 3782 433f 75d5 4f3f f6d1 063f
000000a0: 3e56 203f ba1c e03e 8b44 f53e 1410 a63e
000000b0: e8f6 d03e 8123 b43e 5e98 a83e 12f6 8b3e
000000c0: 4e64 bd3e 7f8d cf3e 471e f83d 374d 2a3e
000000d0: 5b56 a93e 300e 2a3e 03f8 9b3e 82f2 083e
000000e0: b603 7cbd c984 023c 236b e4bc ebc8 f5bd
000000f0: 0365 8cbe 6d77 81be 5066 1cbc 9194 92be
00000100: 57c0 96be dbe2 10be e01c 8fbe 842c 6fbe
00000110: 75c8 6cbe b16d 45be 074d fabd d22c 8ebe
00000120: eb52 85be b4b9 7cbe d073 8fbe 90fe 58be
00000130: 3958 80be ee61 7fbe 74ea 1abe 06ee a9be
00000140: 1a13 68be 80c4 97bf 1958 a5bf ef47 9bbf
00000150: 5a49 86bf c577 8abf aed3 b7bf 4cbc a4bf
00000160: b065 b3bf 7262 6abf 5682 a4bf 29b8 9dbf
00000170: b923 65bf 6b6e 9bbf 8aff 8fbf 99a7 89bf
00000180: 58f0 98bf 1a8d 8fbf 6715 86bf f5bc 87bf
00000190: f27b 85bf 00e9 85bf 00ec 88bf 60f5 98bf
000001a0: a5eb 84bf c87c a3bf c2be 86bf 2bc9 72bf
000001b0: 00eb 72bf 1bd6 72bf 49d0 72bf 74c6 11bf
000001c0: 9b25 7ebf f612 7ebf 10c4 7dbf 9e6c b9bf
000001d0: b9b2 c4bf edbe c4bf 1cbb c4bf f3c1 c4bf
000001e0: 6285 c4bf 014c 9bbf 54b4 c4bf 2dd4 9cbf
000001f0: 1868 c1bf 2ca5 c2bf 4e36 c2bf c3d1 c1bf
00000200: 97e5 bcbf 49fe 9ebf 925d f1bf 0351 f1bf
00000210: 9ffa 9bbf 0f83 a0bf 3cca f3bf f9bc 9abf
00000220: 94b5 b3bf cb54 b0bf 7931 a0bf deef 85bf
00000230: 8535 7cbf a03c 80bf 9615 7abf 1822 84bf
00000240: 05e7 82bf 6ce1 74bf d9f1 7bbf f879 7abf
00000250: 708b 7ebf 07be 74bf 57bb 5cbf 194d 58bf
00000260: 9e1d 45bf 13a4 50bf c0c2 4fbf 77c1 56bf
00000270: 2175 4fbf cb47 4fbf 9389 51bf cef0 44bf
00000280: c445 44bf 2dd0 a5be e8a3 27be d26e 9dbe
00000290: 3f5b 07be cfe4 16bf 8031 09be 9280 12bf
000002a0: 1995 70be 9c31 57be 71c7 45be 7bbb 17be
000002b0: 17ad 8fbb 1426 353d 6d4c ccbe 9f1b 7ebe
000002c0: ef72 7cbe 6d66 74be 7a35 d4bd cfb2 ccbd
000002d0: 77a1 cf3d 2956 c03d bd1e 5f3e cdd8 b13e
000002e0: 268e b13e 5c2c 013f 9892 a83e b466 8d3e
000002f0: 09d4 dd3e 37bf e93e 5d6a 233f e8b4 b63e
00000300: 0d08 f83e d5c2 1d3f 9b83 053f ae42 633f
00000310: 226d 493f fe9b 4c3f 68ab 573f c329 293f
00000320: 96e3 833f 7123 bd3f 868b b73f 8595 b53f
00000330: fc31 ae3f cace b03f 4efd b73f 6aee 9b3f
00000340: 8fa5 af3f 47d1 b23f 1d5e 8e3f 5805 ae3f
00000350: ee52 ba3f d34e ba3f 8151 ba3f 4d82 b43f
00000360: a7b9 bb3f fab6 bb3f 0f40 8a3f 0c4d ad3f
00000370: 1c46 533f e9b5 9f3f c869 673f dca9 7e3f
00000380: 2bcd 583f f7b6 4b3f ee80 a23f d996 833f
00000390: 3e81 883f 38ea 2b3f 5eff 323f 354b 6b3f
000003a0: adc8 683f d0d9 603f 0ffb 823f 5ab5 603f
000003b0: 19c7 2f3f 50ca 303f 6267 1f3f c942 2d3f
000003c0: 76c7 1d3f f2a1 213f 2599 203f b294 183f
000003d0: 0a5c 713f 923c 8b3f dbf3 8e3f e9c9 993f
000003e0: 576a ce3f ba6a ce3f 9465 ce3f a5e1 b83f
000003f0: 9bee b83f c9e2 b83f 80c5 ba3f 266a b93f

dtwlayers.0.filters.4.kernel f4 [463]
2.0908153 2.1021562 2.101324 2.102322 2.099843 2.1143043 2.1310256 2.134907
1.912603 1.4711049 1.4710997 1.3911997 1.1730319 1.3832237 1.3876377 1.373974
1.3115829 1.2692443 1.27259 1.2735686 1.240271 1.2092885 1.1482284 1.092734
1.0530007 1.0343828 1.010995 0.9899616 0.8965388 0.86755854 0.7787871 0.7605757
0.748373 0.7039508 0.70651996 0.686464 0.6954199 0.6361952 0.5494418 0.45137188
0.47241947 0.45861855 0.43710148 0.32347807 0.20395312 0.17559917 0.0987366 0.0735818
0.046344634 0.009871334 -0.008484221 -0.008096116 -0.012576665 -0.0061171316 0.0074291616 -0.054540906
-0.14875929 -0.20606399 -0.23267145 -0.24013896 -0.22636265 -0.2712975 -0.26518196 -0.30742815
-0.3370558 -0.3814007 -0.44765952 -0.5022724 -0.5182555 -0.49196798 -0.59693927 -0.665211
-0.6713368 -0.6975519 -0.73890173 -0.7817278 -0.9548793 -1.1660837 -1.1763839 -1.3135031
-1.4527279 -1.498437 -1.494425 -1.4893345 -1.4879702 -1.4903759 -1.4793925 -1.4412578
-1.4192033 -1.4660951 -1.4687531 -1.4674743 -1.7611297 -1.4598022 -1.4520546 -1.4766134
-1.4786539 -1.4797041 -1.4781616 -1.3665143 -1.1316135 -0.8248643 -0.6465855 -0.3950516
-0.27955478 -0.22263533 -0.16565235 -0.15895633 -0.16549776 -0.16970403 -0.1709954 -0.13915354
-0.07796987 -0.037336953 -0.07889625 -0.16318353 -0.18918253 -0.18413049 -0.18056694 -0.17511965
-0.17698903 -0.19065689 -0.16314182 -0.16809608 -0.17088282 -0.13713752 -0.24279961 -0.45644408
-0.6262442 -0.820247 -0.96853584 -1.0620933 -1.1179304 -1.1525487 -1.1760151 -1.1801919
-1.2401444 -1.2756674 -1.3287662 -1.3361814 -1.3354378 -1.3417082 -1.3377252 -1.2090374
-1.4023557 -1.5049428 -1.6123667 -1.6859676 -1.5656261 -1.4691716 -1.2665828 -1.2978334
-1.3061013 -1.2766163 -1.2760898 -1.3093145 -1.2516046 -1.2175493 -1.2177286 -1.0879736
-0.97184014 -0.90152454 -0.84097546 -0.7664226 -0.68687624 -0.6255877 -0.5816474 -0.70079833
-0.697264 -0.8352154 -0.72943014 -0.6939042 -0.62062573 -0.56750524 -0.5024794 -0.44576645
-0.40556708 -0.40765178 -0.4153926 -0.35442153 -0.35448977 -0.3544945 -0.3595431 -0.38710612
-0.28776088 0.05880236 0.03653531 0.03696878 0.04026208 0.058088254 0.0417271 0.096222416
0.08671609 0.13877419 0.17211469 0.23367114 0.29650062 0.3638143 0.39801797 0.44355932
0.501295 0.5433186 0.5902499 0.5910348 0.71309114 0.737598 0.7418975 0.8139398
0.92910075 0.9705796 0.9670834 0.96077496 1.0022838 1.0530121 1.1309083 1.1865481
1.2514879 1.3488458 1.3970294 1.4404542 1.4895627 1.5449811 1.5128404 1.5351229
1.5054735 1.4616686 1.4315957 1.4064949 1.4001085 1.4252819 1.4488877 1.2442002
0.83563054 0.65371877 0.6072515 0.5963256 0.5844347 0.5786148 0.5828523 0.5828998
0.5825153 0.581168 0.580489 0.57666653 0.58081216 0.5771965 0.5852701 0.56935734
0.567102 0.5465429 0.56119835 0.80313826 1.3267981 1.3223429 1.3264028 1.5385509
00000000: ebcf 0540 ba89 0640 187c 0640 728c 0640
00000010: d463 0640 c350 0740 b962 0840 51a2 0840
00000020: 2dd0 f43f 2a4d bc3f ff4c bc3f d512 b23f
00000030: e925 963f 790d b13f 1d9e b13f 61de af3f
00000040: f3e1 a73f 9976 a23f 3be4 a23f 4c04 a33f
00000050: 33c1 9e3f f7c9 9a3f 26f9 923f b5de 8b3f
00000060: bac8 863f a866 843f 4968 813f 206e 7d3f
00000070: 9183 653f 5118 5e3f 975e 473f 17b5 423f
00000080: 5f95 3f3f 1f36 343f 7ede 343f 1bbc 2f3f
00000090: 0a07 323f b0dd 223f 38a8 0c3f 371a e73e
000000a0: f7e0 f13e 0dd0 ea3e c4cb df3e eb9e a53e
000000b0: 16d9 503e 45d0 333e 6a36 ca3d 0eb2 963d
000000c0: dfd3 3d3d 60bb 213c 6701 0bbc 92a5 04bc
000000d0: 5b0e 4ebc 3872 c8bb 5370 f33b 4966 5fbd
000000e0: 5b54 18be 7002 53be 6d41 6ebe fde6 75be
000000f0: 9ccb 67be 82e7 8abe eec5 87be 3967 9dbe
00000100: 9492 acbe f446 c3be a133 e5be ed94 00bf
00000110: 64ac 04bf 3ae3 fbbe 03d1 18bf 454b 2abf
00000120: bbdc 2bbf c392 32bf aa28 3dbf 501f 48bf
00000130: f872 74bf 3b42 95bf bf93 96bf df20 a8bf
00000140: fdf2 b9bf c9cc bfbf 5249 bfbf 83a2 bebf
00000150: cf75 bebf a3c4 bebf bc5c bdbf 237b b8bf
00000160: 74a8 b5bf 01a9 bbbf 1a00 bcbf 33d6 bbbf
00000170: b36c e1bf ccda babf eddc b9bf ab01 bdbf
00000180: 8844 bdbf f266 bdbf 6634 bdbf f1e9 aebf
00000190: b6d8 90bf 4f2a 53bf a186 25bf 3444 cabe
000001a0: ce21 8fbe 84fa 63be c5a0 29be 73c5 22be
000001b0: 3f78 29be e5c6 2dbe 6b19 2fbe 447e 0ebe
000001c0: abae 9fbd a2ee 18bd 5b94 a1bd 9519 27be
000001d0: 11b9 41be b48c 3cbe 8ae6 38be 9152 33be
000001e0: 9d3c 35be 8f3b 43be a60e 27be 6121 2cbe
000001f0: e8fb 2ebe c76d 0cbe 76a0 78be 0ab3 e9be
00000200: 8a51 20bf b5fb 51bf f7f1 77bf acf2 87bf
00000210: 5818 8fbf b786 93bf aa87 96bf 8710 97bf
00000220: 0dbd 9ebf 1249 a3bf 0315 aabf fe07 abbf
00000230: a0ef aabf 18bd abbf 943a abbf bdc1 9abf
00000240: 6480 b3bf f7a1 c0bf 0862 cebf c9cd d7bf
00000250: 7066 c8bf d10d bcbf 631f a2bf 681f a6bf
00000260: 542e a7bf 2a68 a3bf e956 a3bf 9e97 a7bf
00000270: 9434 a0bf a8d8 9bbf 88de 9bbf b842 8bbf
00000280: 84ca 78bf 50ca 66bf 2b4a 57bf 4634 44bf
00000290: 1fd7 2fbf 8426 20bf d8e6 14bf 8567 33bf
000002a0: e57f 32bf add0 55bf efbb 3abf b5a3 31bf
000002b0: 54e1 1ebf 0648 11bf 7da2 00bf 803b e4be
000002c0: 7da6 cfbe bcb7 d0be 57ae d4be bd76 b5be
000002d0: af7f b5be 4e80 b5be 0916 b8be c632 c6be
000002e0: 6555 93be beda 703d 0da6 153d 936c 173d
000002f0: dae9 243d f3ed 6d3d 09ea 2a3d 4210 c53d
00000300: 3598 b13d d21a 0e3e d53e 303e 7d47 6f3e
00000310: eece 973e de45 ba3e 03c9 cb3e 351a e33e
00000320: de54 003f ee16 0b3f 9e1a 173f 0f4e 173f
00000330: 248d 363f 39d3 3c3f ffec 3d3f 5c5e 503f
00000340: 8cd9 6d3f e877 783f c792 773f 59f5 753f
00000350: d64a 803f 1ac9 863f 9ac1 903f cfe0 973f
00000360: c130 a03f fba6 ac3f dcd1 b23f ce60 b83f
00000370: fea9 be3f f1c1 c53f c1a4 c13f e87e c43f
00000380: 5bb3 c03f f517 bb3f 873e b73f 0608 b43f
00000390: c136 b33f a36f b63f 2775 b93f f441 9f3f
000003a0: e2eb 553f 1d5a 273f d674 1b3f cba8 183f
000003b0: 839d 153f 1920 143f cf35 153f ec38 153f
000003c0: b91f 153f 6dc7 143f ed9a 143f 6ba0 133f
000003d0: 1bb0 143f 26c3 133f 43d4 153f 67c1 113f
000003e0: 992d 113f 3cea 0b3f b2aa 0f3f 789a 4d3f
000003f0: 85d4 a93f 8842 a93f 91c7 a93f 3cef c43f

dtwlayers.0.filters.5.kernel f4 [463]
1.7755553 1.7754881 1.7904277 1.8835431 1.8417767 1.8359605 1.8522409 1.8460507
1.9191742 1.7803007 1.247074 1.2452471 1.2465082 1.2356039 1.2229027 1.2248561
1.2246855 1.2418447 1.2392064 1.2041227 1.1489997 1.1211654 1.0858458 1.0471812
1.0142334 0.97724795 0.98456943 0.9191642 0.83189315 0.7845242 0.7514606 0.72172946
0.72313637 0.72937673 0.6895661 0.7022185 0.64714545 0.54985565 0.40357488 0.28263414
0.26854697 0.22861962 0.23567681 0.19425553 0.20046566 0.1624075 0.12676157 0.13102743
0.09135452 0.09500385 0.0950749 0.09500576 0.06740853 0.069137074 0.030599587 0.033482842
-0.054455306 -0.15040113 -0.19556634 -0.23061731 -0.2635361 -0.29998592 -0.34205958 -0.3459554
-0.33967686 -0.33973098 -0.3674655 -0.43491805 -0.50536615 -0.5059788 -0.6655765 -0.6240418
-0.5585953 -0.49980053 -0.5894627 -0.8669116 -0.87621385 -0.87734884 -0.8768294 -0.8656873
-0.8664708 -0.8765153 -0.85536146 -0.83991647 -0.84013337 -0.84028774 -0.84007466 -0.8516387
-0.83881855 -0.838992 -0.8567004 -0.837486 -0.8345661 -0.84404373 -0.84169656 -0.8419393
-0.83537513 -0.8428479 -0.8357468 -0.88660914 -1.0292054 -1.0316063 -1.0670846 -1.0678207
-1.0122693 -1.0895282 -1.1072559 -1.1625532 -1.1927106 -1.1357441 -1.2960589 -1.1807176
-1.169705 -1.1743475 -1.1531006 -1.1968797 -1.1996722 -1.1993357 -1.1997765 -1.1945248
-1.1910763 -1.2006328 -1.2317336 -1.2351696 -1.27501 -1.2250593 -1.3347429 -1.4655665
-1.4014442 -1.1416602 -1.1372116 -1.1524235 -1.1723197 -1.170899 -1.1680776 -1.1717918
-1.166074 -1.1730843 -1.173194 -1.148967 -1.1726784 -1.0950155 -1.0402311 -1.0497402
-1.0532625 -1.027744 -0.98705626 -0.9872117 -0.9944259 -0.99036396 -0.99192214 -0.9955261
-0.99566066 -0.9954588 -0.9964649 -1.0169667 -1.003511 -1.0376332 -1.0208309 -1.0462929
-1.0203568 -1.0360041 -1.063051 -1.0814849 -1.0869027 -1.0650836 -1.0779018 -1.1012888
-1.101168 -1.0781938 -1.0662564 -1.0632261 -1.1077187 -1.0591178 -1.0565104 0.55403423
0.4750639 0.49214903 0.46998692 0.50804067 0.59996355 0.45598486 0.466755 0.47790807
0.4977392 0.5031945 0.5280909 0.5705348 0.5680745 0.56775874 0.61064875 0.65002847
0.6544322 0.6487576 0.6407203 0.6701324 0.8070009 0.9213787 0.93859667 0.9708772
0.95252603 1.030758 1.1599667 1.1392077 1.3401434 1.5470479 1.7575012 1.8663968
1.888741 1.8929713 1.9094954 1.8373306 1.8614981 1.9054143 1.879024 1.8700141
1.8705031 1.8434663 1.7018162 1.4860455 1.2254397 0.91772264 0.77981883 0.6901468
0.69404584 0.6832909 0.6692685 0.65921104 0.6499161 0.6611344 0.66690993 0.67644346
0.6809798 0.69606435 0.70821756 1.0020887 1.5653442 1.6901873 1.7639781 1.7811968
1.7625265 1.7568772 1.7478968 1.7646979 1.718382 1.7221247 1.7203397 1.6905487
1.6279383 1.6213934 1.6213347 1.5296675 1.4335991 1.3142642 1.1732557 1.0239806
00000000: 6545 e33f 3243 e33f bc2c e53f f117 f13f
00000010: 57bf eb3f c100 eb3f 3b16 ed3f 644b ec3f
00000020: 80a7 f53f e5e0 e33f 1fa0 9f3f 4264 9f3f
00000030: 958d 9f3f 4528 9e3f 1388 9c3f 16c8 9c3f
00000040: 7fc2 9c3f c4f4 9e3f 519e 9e3f b120 9a3f
00000050: 6c12 933f 5982 8f3f fffc 8a3f 090a 863f
00000060: 66d2 813f ec2c 7a3f be0c 7c3f 584e 6b3f
00000070: f3f6 543f 94d6 483f b95f 403f 43c3 383f
00000080: 771f 393f 6fb8 3a3f 6787 303f 97c4 333f
00000090: 53ab 253f 57c3 0c3f 5ea1 ce3e 6cb5 903e
000000a0: fd7e 893e 431b 6a3e 4355 713e ecea 463e
000000b0: df46 4d3e 274e 263e c9cd 013e 0e2c 063e
000000c0: 1418 bb3d 6191 c23d a1b6 c23d 6192 c23d
000000d0: 7c0d 8a3d bd97 8d3d fcab fa3c 4e25 093d
000000e0: 870c 5fbd c102 1abe 8b42 48be f226 6cbe
000000f0: 34ee 86be c197 99be 6f22 afbe 1121 b1be
00000100: 20ea adbe 38f1 adbe 7024 bcbe 94ad debe
00000110: ad5f 01bf d487 01bf 3963 2abf 34c1 1fbf
00000120: 1a00 0fbf dbe5 ffbe 07e7 16bf ebed 5dbf
00000130: 8d4f 60bf ef99 60bf e477 60bf af9d 5dbf
00000140: 08d1 5dbf 4f63 60bf f8f8 5abf c404 57bf
00000150: fb12 57bf 191d 57bf 220f 57bf fe04 5abf
00000160: d0bc 56bf 2ec8 56bf b850 5bbf 7c65 56bf
00000170: 20a6 55bf 4013 58bf 6d79 57bf 5589 57bf
00000180: 25db 55bf e1c4 57bf 81f3 55bf d1f8 62bf
00000190: 01bd 83bf ad0b 84bf 3a96 88bf 59ae 88bf
000001a0: 0a92 81bf a975 8bbf 90ba 8dbf 8bce 94bf
000001b0: beaa 98bf 1060 91bf 42e5 a5bf c121 97bf
000001c0: e5b8 95bf 0551 96bf cd98 93bf 5b33 99bf
000001d0: dc8e 99bf d583 99bf 4792 99bf 30e6 98bf
000001e0: 3075 98bf 56ae 99bf 72a9 9dbf 0a1a 9ebf
000001f0: 8733 a3bf bece 9cbf dbd8 aabf af97 bbbf
00000200: 8662 b3bf ec21 92bf 2690 91bf 9d82 93bf
00000210: 920e 96bf 05e0 95bf 9183 95bf 46fd 95bf
00000220: ea41 95bf a027 96bf 392b 96bf 5a11 93bf
00000230: 531a 96bf 7829 8cbf 4b26 85bf e35d 86bf
00000240: 4ed1 86bf 1e8d 83bf b8af 7cbf e8b9 7cbf
00000250: b292 7ebf 7e88 7dbf 9cee 7dbf ccda 7ebf
00000260: 9ee3 7ebf 63d6 7ebf 5318 7fbf f72b 82bf
00000270: 0c73 80bf 2ad1 84bf 96aa 82bf edec 85bf
00000280: 0d9b 82bf c89b 84bf 0e12 88bf 196e 8abf
00000290: a11f 8bbf a954 88bf b0f8 89bf 08f7 8cbf
000002a0: 13f3 8cbf 4102 8abf 177b 88bf cb17 88bf
000002b0: bac9 8dbf 2c91 87bf bc3b 87bf 30d5 0d3f
000002c0: 933b f33e f5fa fb3e 20a2 f03e f40e 023f
000002d0: 3697 193f d976 e93e 83fa ee3e 5eb0 f43e
000002e0: acd7 fe3e 5bd1 003f f730 073f 920e 123f
000002f0: 556d 113f a358 113f 7a53 1c3f 4468 263f
00000300: de88 273f fa14 263f 3f06 243f cc8d 2b3f
00000310: 9c97 4e3f 79df 6b3f df47 703f 688b 783f
00000320: bfd8 733f e1ef 833f ca79 943f 8fd1 913f
00000330: d289 ab3f aa05 c63f cdf5 e03f 17e6 ee3f
00000340: 44c2 f13f e24c f23f 586a f43f a62d eb3f
00000350: 9245 ee3f 9ee4 f33f dc83 f03f 9f5c ef3f
00000360: a56c ef3f b4f6 eb3f 1dd5 d93f bd36 be3f
00000370: 35db 9c3f dfef 6a3f 35a2 473f 76ad 303f
00000380: fdac 313f 27ec 2e3f 2e55 2b3f 0ec2 283f
00000390: e760 263f 1b40 293f 9cba 2a3f 662b 2d3f
000003a0: b154 2e3f 4631 323f bf4d 353f 7144 803f
000003b0: 335d c83f 0f58 d83f 09ca e13f 42fe e33f
000003c0: 789a e13f 5ae1 e03f 15bb df3f 9fe1 e13f
000003d0: f1f3 db3f 956e dc3f 1734 dc3f e663 d83f
000003e0: 4860 d03f d289 cf3f e587 cf3f 25cc c33f
000003f0: 2d80 b73f cf39 a83f 3e2d 963f cc11 833f

dtwlayers.0.filters.6.kernel f4 [463]
2.2653553 2.2569773 2.2469015 2.2383757 2.2238922 2.2113419 2.1956441 2.1813576
1.891617 1.7726433 1.7569039 1.7149526 1.5964578 1.5655882 1.5668128 1.5695477
1.5709141 1.5359432 1.4925929 1.375691 1.2782676 1.2431123 1.2142806 1.1706119
1.0752083 0.94869405 0.9987399 0.98831314 0.93456215 0.8771617 0.8189639 0.7920672
0.80175704 0.74959075 0.75711715 0.7582057 0.7133245 0.7111626 0.6678027 0.6241843
0.63212395 0.63382214 0.6375683 0.6032263 0.5604696 0.57583827 0.51393455 0.43037352
0.3561228 0.2638199 0.21000755 0.3302403 0.18742129 -0.22228254 -0.21811639 -0.21809927
-0.2180154 -0.23062521 -0.20614976 -0.22881109 -0.20093407 -0.20079681 -0.2007875 -0.23471397
-0.2747352 -0.3169381 -0.36238012 -0.31718403 -0.36881986 -0.3703515 -0.37037414 -0.2861592
-0.2934285 -0.14494446 -0.35958403 -0.35136637 -0.34751353 -0.35875192 -0.33707038 -0.30972424
-0.18524382 -0.23028135 -0.33971035 -0.34920898 -0.3460422 -0.35491598 -0.31497434 -0.34834912
-0.3484103 -0.3454012 -0.34345186 -0.29705983 -0.32938117 -0.33832538 -1.6773938 -1.685388
-1.6727674 -1.8037071 -1.7235415 -1.6787658 -1.7717091 -1.7110432 -1.8504982 -1.7129923
-1.7246692 -1.7142854 -1.6961316 -1.6345304 -1.661435 -1.6544343 -1.7674721 -1.6786801
-1.5467639 -1.548698 -1.546054 -1.5466781 -1.55024 -1.5456299 -1.5456699 -1.5446682
-1.5420891 -1.5414773 -1.5411757 -1.5374002 -1.5315286 -1.5289826 -1.5096564 -1.5025344
-1.5022267 -1.465608 -1.4865174 -1.434273 -1.4541484 -1.0648911 -0.9097701 -1.0682802
-1.0685675 -1.0670809 -1.0679948 -1.0469038 -1.0687891 -0.9933375 -0.98370814 -0.9438056
-0.91445225 -0.9144011 -0.9283307 -0.9240467 -0.922344 -0.98881596 -0.9334999 -0.2905816
-0.22828773 -0.29360464 -0.23163593 -0.26013193 -0.1361657 -0.3142774 -0.23051505 -0.27937645
-0.26800498 -0.2613605 -0.25471267 -0.30889487 -0.20269178 -0.013872751 0.036321957 0.04244784
-0.09073123 -0.34761548 -0.56849974 -0.52615637 -0.37592402 -0.19769217 -0.09081372 -0.08463931
-0.057796206 -0.037129976 -0.03977423 -0.03249144 0.07514263 0.19521208 0.31247315 0.25192758
0.34081116 0.38929915 0.48778585 0.55479467 0.658325 0.7808211 0.7380905 0.73615956
0.7349295 0.728735 0.77368784 0.8375129 0.96118003 1.0727427 1.0675578 1.237752
1.6033646 1.6945692 1.6747689 1.6486217 1.6507623 1.6598026 1.6851032 1.6849037
1.6713556 1.6609676 1.6542937 1.6491283 1.6575209 1.6612144 1.6077948 1.4628527
1.4696234 1.4052281 1.4831673 1.3189124 0.71743757 0.59987235 0.55999565 0.56524235
0.55623215 0.5713686 0.53813994 0.54421383 0.571345 0.5677835 0.5640663 0.56375754
0.5911004 0.69374365 1.3054289 1.3065991 1.5772856 1.8177296 1.8145903 1.8077136
1.8052593 1.8036741 1.7987275 1.7973875 1.8116884 1.8109827 1.8282754 1.8461988
1.8336872 1.8303957 1.5832847 1.4552947 1.234342 0.65856 0.65031445 0.65780187
00000000: 95fb 1040 5172 1040 3ccd 0f40 8c41 0f40
00000010: 4054 0e40 a086 0d40 6f85 0c40 5d9b 0b40
00000020: 8120 f23f fae5 e23f 3ae2 e03f 9183 db3f
00000030: bb58 cc3f 3265 c83f 528d c83f f0e6 c83f
00000040: b713 c93f c999 c43f 490d bf3f a516 b03f
00000050: 469e a33f 4e1e 9f3f 8c6d 9b3f 9cd6 953f
00000060: 6da0 893f 9ddd 723f 6bad 7f3f 1702 7d3f
00000070: 773f 6f3f ab8d 603f 9ea7 513f ebc4 4a3f
00000080: f33f 4d3f 2ee5 3f3f 6ed2 413f c519 423f
00000090: 6f9c 363f c10e 363f 1ef5 2a3f 8bca 1f3f
000000a0: e0d2 213f 2b42 223f ad37 233f 0a6d 1a3f
000000b0: f07a 0f3f 236a 133f 3791 033f eb59 dc3e
000000c0: ba55 b63e 6713 873e 380c 573e 4215 a93e
000000d0: 5eeb 3f3e 099e 63be e759 5fbe 6a55 5fbe
000000e0: 6e3f 5fbe 0429 6cbe ec18 53be 744d 6abe
000000f0: a9c1 4dbe ae9d 4dbe 3d9b 4dbe dc58 70be
00000100: 18aa 8cbe b645 a2be e389 b9be f265 a2be
00000110: f5d5 bcbe b69e bdbe aea1 bdbe 7583 92be
00000120: 433c 96be 526c 14be 661b b8be 4be6 b3be
00000130: 4bed b1be 55ae b7be 7d94 acbe 2d94 9ebe
00000140: 8eb0 3dbe e0ce 6bbe 84ee adbe 85cb b2be
00000150: 712c b1be 8cb7 b5be 5144 a1be d15a b2be
00000160: d662 b2be 6dd8 b0be ecd8 afbe 3a18 98be
00000170: a6a4 a8be fc38 adbe d7b4 d6bf cbba d7bf
00000180: 3e1d d6bf e0df e6bf 029d dcbf cce1 d6bf
00000190: 5dc7 e2bf 7703 dbbf 20dd ecbf 5543 dbbf
000001a0: f6c1 dcbf b46d dbbf d71a d9bf 4b38 d1bf
000001b0: e7a9 d4bf 81c4 d3bf 873c e2bf fdde d6bf
000001c0: 5cfc c5bf bc3b c6bf 19e5 c5bf 8cf9 c5bf
000001d0: 446e c6bf 33d7 c5bf 83d8 c5bf b0b7 c5bf
000001e0: 2d63 c5bf 214f c5bf 3f45 c5bf 88c9 c4bf
000001f0: 2109 c4bf b4b5 c3bf 6c3c c1bf 0c53 c0bf
00000200: f748 c0bf 0b99 bbbf 3446 bebf 4296 b7bf
00000210: 8921 babf 5a4e 88bf b1e6 68bf 68bd 88bf
00000220: d2c6 88bf 1b96 88bf 0eb4 88bf f200 86bf
00000230: 15ce 88bf 5e4b 7ebf 4cd4 7bbf 3e9d 71bf
00000240: 8b19 6abf 3116 6abf 15a7 6dbf 538e 6cbf
00000250: bd1e 6cbf 0b23 7dbf d9f9 6ebf 1dc7 94be
00000260: 42c4 69be 5953 96be f831 6dbe 0330 85be
00000270: 056f 0bbe f8e8 a0be 230c 6cbe 6e0a 8fbe
00000280: f337 89be 0bd1 85be b369 82be 7827 9ebe
00000290: 6f8e 4fbe 894a 63bc 55c6 143d c9dd 2d3d
000002a0: 4cd1 b9bd a8fa b1be 3389 11bf 2fb2 06bf
000002b0: 1d79 c0be d16f 4abe 8bfc b9bd 6057 adbd
000002c0: b7bb 6cbd 9a15 18bd 4eea 22bd bf15 05bd
000002d0: 61e4 993d ade5 473e 7bfc 9f3e a7fc 803e
000002e0: cd7e ae3e 3852 c73e 11bf f93e 0607 0e3f
000002f0: fd87 283f e4e3 473f 80f3 3c3f f474 3c3f
00000300: 5724 3c3f 618e 3a3f 6810 463f 3f67 563f
00000310: e50f 763f a24f 893f bca5 883f a86e 9e3f
00000320: 0d3b cd3f a5e7 d83f d45e d63f 0906 d33f
00000330: 2e4c d33f 6974 d43f 76b1 d73f edaa d73f
00000340: fbee d53f 969a d43f e5bf d33f a316 d33f
00000350: a529 d43f aca2 d43f 38cc cd3f c23e bb3f
00000360: 9f1c bc3f 84de b33f 6dd8 bd3f 1fd2 a83f
00000370: fda9 373f 3c91 193f e05b 0f3f b9b3 103f
00000380: 3b65 0e3f 3645 123f 8ac3 093f 9951 0b3f
00000390: aa43 123f 425a 113f a666 103f 6a52 103f
000003a0: 5b52 173f 2f99 313f 4b18 a73f a43e a73f
000003b0: 7fe4 c93f 5dab e83f 7f44 e83f 2963 e73f
000003c0: bd12 e73f cbde e63f b43c e63f cb10 e63f
000003d0: 68e5 e73f 48ce e73f ee04 ea3f 3e50 ec3f
000003e0: 43b6 ea3f 684a ea3f 13a9 ca3f 1947 ba3f
000003f0: ebfe 9d3f 6397 283f 027b 263f b465 283f
